trained_net.pth (torch, 807815 bytes, 11 tensors)

backbone.0.weight f4 [256, 6]
000000 e5 ec 9c 3e b6 96 aa 3e 23 ea cb bd 22 1f be 3e
       0.30649486 0.33318108 -0.099567674 0.37133127
000010 26 5c be bd 21 6a a0 3d ce 07 43 be 3c 56 7d 3e
       -0.0929492 0.078327425 -0.19045946 0.24739927
000020 23 e4 bc 3e 06 a8 94 be 7f 6a ba 3e 0a dd a8 3d
       0.36892805 -0.29034442 0.36409375 0.08245285
000030 75 8e 98 3e 1b 28 55 3d dd 4e 46 3e 12 23 79 bd
       0.29796186 0.0520402 0.19366021 -0.06082446
000040 bb 81 9f 3e 4e 22 67 3d 3e 11 33 be fc 62 dc 3d
       0.31153664 0.0564292 -0.17487046 0.10761067
000050 38 33 33 be b8 f5 0d bd 60 32 1c be b6 8e 8c 3e
       -0.17500007 -0.034658164 -0.15253592 0.2745263
000060 23 ff a4 be 41 b9 40 be 68 17 ec bd 16 5c 7b be
       -0.32225904 -0.18820669 -0.11527902 -0.24546847
000070 78 d3 1d 3d a2 72 ce be 83 f3 b7 3e e5 57 b6 be
       0.03853175 -0.40321833 0.35927972 -0.35613933
000080 b3 d0 9c 3e f9 02 72 3d 9e c6 10 be 9e e9 78 3e
       0.30627975 0.059084866 -0.14138266 0.24307868
000090 76 a9 69 3d 8a 5f a5 3e 6f e2 11 3d 65 4f 0d be
       0.057046376 0.32299453 0.035616335 -0.13799818
0000a0 61 57 cd 3d ff ed ef bd 4d 85 27 3e 46 7c b6 3e
       0.10026432 -0.11715316 0.16359444 0.35641688
0000b0 d3 db 68 3e 54 a6 3f be e9 59 68 3e 5e fc 83 3d
       0.22740106 -0.18715793 0.22690548 0.064446196
0000c0 3e 4a 47 3e 1c 88 85 be b1 35 d6 be a9 51 30 be
       0.19461915 -0.26080406 -0.41837838 -0.17218651
0000d0 31 b8 a7 be 37 22 a5 3e 46 23 f4 3d 56 64 2e 3e
       -0.32757714 0.32252666 0.119207904 0.17030463
0000e0 74 97 0f 3e 1f ab 8a 3b 80 71 a9 3e 5e 36 8f be
       0.14022619 0.004231825 0.33094406 -0.27971166
0000f0 98 1d 16 3d ca cf 88 be c1 10 0c 3e 02 d6 04 be
       0.036649317 -0.2672103 0.13678266 -0.12972263
000100 50 35 0b 3e 7b 23 97 bd 7a 9f b1 3e 6c 8d 70 be
       0.13594556 -0.07379814 0.34691983 -0.23491448
000110 f6 42 70 be 6c 37 70 be a1 92 c0 3e c6 15 12 3e
       -0.23463044 -0.23458642 0.3761187 0.14266118
000120 39 19 c5 3e 15 76 b0 be 8c e5 d2 be 81 05 a7 be
       0.38495806 -0.3446509 -0.41190755 -0.32621387
000130 f1 05 90 be 1c b4 21 3e d0 d9 1e 3e 86 3b b2 3e
       -0.28129533 0.15791363 0.15512776 0.34811038
000140 13 ca 4e be 86 f1 89 be 13 e8 66 3e ae 2d 22 be
       -0.20194273 -0.2694208 0.22549467 -0.15837738
000150 ca f0 74 3e a4 0a d8 bd 3a b2 66 3e 7c 9a a6 be
       0.23919979 -0.105489045 0.22528926 -0.32539737
000160 38 54 5b be f2 7a ed 3d f8 12 bd 3d 90 1a c9 bd
       -0.21418846 0.115957156 0.092321336 -0.098195195
000170 a9 4a 80 3e ea e0 90 3e 7f 58 95 be 92 c9 57 be
       0.2505696 0.28296596 -0.2916908 -0.21072987
000180 36 c2 ba 3e da 94 16 be 00 b2 1b be b0 db cd be
       0.36476296 -0.1470522 -0.1520462 -0.4020667
000190 bc 66 76 be ea d7 bf 3d 90 b7 5c bd 1a ba 97 be
       -0.24062628 0.09367354 -0.053885996 -0.29634172
0001a0 40 e5 1c 3c a4 c7 8e be a4 55 b1 be d4 33 66 be
       0.009576142 -0.2788669 -0.3463565 -0.22480708
0001b0 37 81 ba be 7d a8 88 be 4f 60 cd 3e 25 a8 8f 3d
       -0.36426708 -0.26691046 0.4011254 0.07014493
0001c0 d1 63 f3 3d 49 7d c6 be ea 47 89 be 2e 26 0b be
       0.11884273 -0.3876746 -0.2681268 -0.13588783
0001d0 a0 bd 82 3d 85 ec b7 be f7 1f 34 be 6b 45 7a be
       0.06383824 -0.35922638 -0.17590319 -0.24440543
0001e0 00 4a 94 3a 6e 8e 1b be 30 c0 e7 bc ea a3 8d be
       0.0011313558 -0.15191051 -0.028289884 -0.2766412
0001f0 f4 78 8f be 92 e3 73 be dd a8 0b be 1b 1e a2 be
       -0.28021967 -0.2381728 -0.13638635 -0.31663594
000200 58 31 ab 3e 3c 0b b6 bd 6e d7 af 3e 11 b0 04 3e
       0.33436084 -0.088888615 0.34344047 0.12957789
000210 0a 00 b1 be c0 a6 90 3e e8 0b e6 bd 7e 3f 20 be
       -0.34570342 0.2825222 -0.1123274 -0.1564922
000220 02 81 ad be 75 cd cf be 08 37 ef 3d a8 a3 b6 bd
       -0.33887488 -0.4058644 0.11680418 -0.08917934
000230 4c c1 22 3e a3 89 ab be 54 2f 9b 3e 28 6f 99 be
       0.1589405 -0.33503446 0.30309546 -0.29967618
000240 8a 01 9f bd 62 f0 a1 3d 92 7e 50 3e 56 19 a5 3e
       -0.077639654 0.079071775 0.20360783 0.32245892
000250 29 c8 ba 3e 31 43 a9 be fb 23 e7 3d 67 42 2e be
       0.36480835 -0.33059075 0.112861596 -0.17017518
000260 a8 08 21 bd de ac 99 be c2 2a c1 3e d2 a1 9b be
       -0.039314896 -0.300147 0.37727934 -0.30396897
000270 75 9e 57 3e 6c 67 0b 3e 0e 42 00 3e 25 9d 69 be
       0.2105654 0.13613671 0.12525198 -0.22813852
000280 58 30 ba 3e 26 de a8 3d 26 ce 1b 3d 31 97 bf be
       0.36365008 0.082454965 0.038038395 -0.37420037
000290 73 db 24 3e ee a7 91 bd 36 38 49 be 46 28 ac 3e
       0.16099338 -0.07112108 -0.19650349 0.33624476
0002a0 e4 67 ba 3d 8e 4b 67 be e9 96 53 be 80 b6 9f bc
       0.09101847 -0.22587416 -0.20663036 -0.019496202
0002b0 bc 6b 69 3e 60 a6 d5 bd d6 86 6e be 2e 28 0f be
       0.22795004 -0.10432124 -0.23293623 -0.13980171
0002c0 ea 27 9c be c0 16 15 3e d4 ca a1 3e 66 c8 c4 be
       -0.30499202 0.1455946 0.31600058 -0.38434142
0002d0 d2 9e ad 3d d7 f2 4d 3e 02 25 85 3d 2f 08 1e be
       0.08477558 0.20112167 0.06501199 -0.1543281
0002e0 4a 19 51 3e 79 87 52 3e d9 90 1a 3e 67 e6 9d bd
       0.20419803 0.20559491 0.15094317 -0.077099614
0002f0 07 61 e8 bd 26 ee 1c 3d 07 ae 9e bd 3a 46 04 be
       -0.113466315 0.038313054 -0.07748037 -0.12917414
000300 93 fb 7e 3e 05 71 ad 3e ae 15 57 bd 49 f8 d3 bd
       0.24900655 0.3387529 -0.05251091 -0.10350091
000310 7a 22 c9 bb aa 61 e4 bc 59 3a b5 3d 2d e4 d6 3d
       -0.006138143 -0.027878601 0.088490196 0.1049274
000320 36 74 c3 be 3b b0 25 be 76 3d aa 3e 4e 56 18 3e
       -0.381746 -0.16180508 0.33250016 0.14876673
000330 26 5c 5e bc c2 46 75 be 24 2b 78 be b6 63 b7 be
       -0.013571775 -0.23952773 -0.24235207 -0.3581826
000340 35 80 00 be 23 8f 14 3e 62 8d 80 3e e8 6f 37 3e
       -0.12548907 0.14507727 0.25107867 0.17913783
000350 2e 0b bd be ca e6 81 be ed 82 94 bd f1 b0 c5 3e
       -0.36922592 -0.2537139 -0.072515346 0.38611558
000360 80 57 4e 3d 5a 68 ea bd 5a 86 25 3e f9 82 26 be
       0.050376415 -0.11445685 0.16164532 -0.162609
000370 88 e1 8a be 33 7c 94 3e bf b7 46 be 88 08 b9 bd
       -0.27125192 0.29001006 -0.19406031 -0.0903483
000380 e3 40 d5 be c5 91 86 3e b6 0a 99 3e fc 44 0e 3e
       -0.41651067 0.26283088 0.29890984 0.13893503
000390 08 a7 93 be 3f 41 d2 be fd f5 b1 be f1 c4 93 3e
       -0.28838372 -0.41065404 -0.34757987 0.28861192
0003a0 c4 ac 38 3e e3 76 a9 3e 68 34 5e 3e 08 a0 da 3d
       0.18034655 0.33098516 0.21699679 0.10675055
0003b0 d1 e1 15 ba 8e 35 9d be c0 54 b1 be e5 87 c0 be
       -0.0005717548 -0.3070492 -0.34634972 -0.3760368
0003c0 dc 21 2b 3e 51 3f 4d be 0c 44 a8 bd 7c 96 70 be
       0.16712135 -0.20043685 -0.08216104 -0.23494905
0003d0 14 5b 98 bd 26 1e 93 be 6b 83 85 be 4d 39 05 3e
       -0.07439247 -0.2873394 -0.26076826 0.1301014
0003e0 3d b0 01 be a4 a1 7c 3e 3e 8f 0b be 1c f9 9d be
       -0.12664886 0.24671036 -0.13628861 -0.30854118
0003f0 f0 84 93 bd 98 a5 4a be a4 cb ff bd 36 fd c6 be
       -0.0720309 -0.19789732 -0.12490013 -0.3886506

backbone.0.bias f4 [256]
000000 49 b7 5f 3d f8 82 ef bd 13 20 5b be 3c 6a fa bd
       0.054618154 -0.11694902 -0.21398954 -0.12227294
000010 c6 0d 15 be 16 4a c3 3e ec 4c 18 3e 81 78 c9 3e
       -0.14556035 0.3814246 0.14873093 0.3934975
000020 eb 05 cb 3d 4c da cc 3d a0 36 37 3e 17 06 a0 3d
       0.09913238 0.10002574 0.17891932 0.078136615
000030 5d dd a7 be e1 1c 6e be 63 df db bd d9 4e 80 3c
       -0.32786074 -0.23253204 -0.10735967 0.015662597
000040 0d d3 14 3e d0 f7 20 3e 75 41 a2 3e a4 34 aa 3d
       0.14533634 0.15719533 0.31690565 0.08310822
000050 26 ad 0e be fb 60 a0 be 3d 17 99 be f7 b6 79 be
       -0.13933238 -0.3132399 -0.29900542 -0.24386202
000060 7c 03 ee 3d 74 69 67 3e aa 1a b3 3e f1 ce 12 be
       0.11621758 0.22598821 0.3498128 -0.14336754
000070 28 e8 03 bd f8 49 f8 bd 81 68 32 bc f6 b3 00 3e
       -0.032203823 -0.121234834 -0.0108891735 0.1256865
000080 fe 90 ac bc 26 36 10 3c 61 5b 70 3d 74 86 12 3e
       -0.021065231 0.0088019725 0.058680896 0.14309102
000090 c9 02 07 be 68 b0 81 be 0e 74 a5 3d 7c f6 37 bd
       -0.13184656 -0.253299 0.08078776 -0.0449128
0000a0 fb 62 3d be 0a 1e 2a 3e 80 a4 72 3b b1 a6 88 bd
       -0.1849479 0.16613021 0.003702432 -0.06672419
0000b0 fe 9c 51 be be 66 32 bd d4 bc b1 be 1a b0 ac 3d
       -0.20470044 -0.043555014 -0.34714377 0.08432026
0000c0 b7 06 84 bb e8 3e 7c 3e f5 83 b4 3c ae ee a9 3c
       -0.004029121 0.24633372 0.022035578 0.020743694
0000d0 59 92 cf 3d 40 dc 9c 3e 0c 8d 45 be 8d 5e 7d 3e
       0.101353355 0.30636787 -0.19292086 0.247431
0000e0 14 7c c2 3d 5e 71 8b be 0b bd 06 3e 96 ff 81 be
       0.09496322 -0.2723493 0.13158052 -0.2539031
0000f0 f3 1c f0 bd 06 bd 3e be b1 14 8d be fa ae 9f 3e
       -0.117242716 -0.18626794 -0.2755485 0.31188184
000100 49 d4 ba be 1d 54 5b 3e 78 97 b7 be d8 83 4b bd
       -0.36490086 0.21418805 -0.3585775 -0.049686283
000110 c0 2d 87 3c 2a 7f 8f 3e 56 8d 0e be 36 7e e6 3d
       0.016501307 0.28026706 -0.13921103 0.112545416
000120 3d 70 91 3d 2a cf 6c 3e 37 18 05 3d 61 48 1d 3e
       0.07101486 0.23125902 0.032493796 0.15359642
000130 73 1f 83 be a2 40 91 be 34 f1 b5 3e 68 4b 9c be
       -0.2560993 -0.28369623 0.35535586 -0.3052628
000140 0c 56 8e bd dc 6c 74 bd bf 8b c7 3e bd 42 ce bd
       -0.06950006 -0.05967413 0.38973805 -0.10071323
000150 56 21 9f be d4 f2 d3 bd f4 66 4d 3e cb eb 27 3e
       -0.3108012 -0.1034905 0.20058805 0.16398542
000160 e6 23 a8 3e 33 4a bd bd 7f de 39 3e cd ba c8 be
       0.32839888 -0.09242668 0.18151282 -0.39205018
000170 27 f7 17 3e ee b2 39 3e 8e d6 86 3e b2 b9 6f be
       0.14840375 0.18134663 0.26335567 -0.23410681
000180 f8 37 df bd 0b 43 ba 3d b6 3d 97 be 20 46 a6 be
       -0.10899347 0.09094819 -0.2953927 -0.32475376
000190 d6 16 c9 be 1a 85 a2 3c ef 21 87 3e d6 63 d2 3d
       -0.39275235 0.019838858 0.26393077 0.102729484
0001a0 9f 51 72 3c 62 7e 0a 3e dc 59 83 be 3e 3a 19 3d
       0.014789968 0.13524774 -0.25654495 0.03740906
0001b0 ef 2a e1 bd f5 54 57 be 46 27 ba 3e 78 69 a6 be
       -0.10994517 -0.21028502 0.36358088 -0.3250234
0001c0 e1 ca 56 3d c0 dd af be 71 b2 68 bc ef e9 41 be
       0.052439574 -0.3434887 -0.0142027 -0.18936895
0001d0 4a 39 04 3e 12 d1 72 be 7b a9 89 3e 91 be ab be
       0.12912479 -0.23712566 0.26887116 -0.33543828
0001e0 b0 62 6d 3e 8e 03 9d be cd 9b 64 3e 8a 12 3b be
       0.23182178 -0.30666775 0.22325058 -0.18268791
0001f0 04 c1 a9 3b 6e 7f 85 bd 3d 0e 84 3e 5c 01 09 3e
       0.00518048 -0.06518446 0.25792113 0.13379425
000200 2d 31 b8 be d8 bd 19 3d 7c 32 90 be 56 ee 94 3e
       -0.35975018 0.037534565 -0.28163517 0.29088086
000210 bc f1 9c 3d ec 3c f2 bd 40 46 55 be de db 15 3e
       0.07663295 -0.11828026 -0.2082758 0.14634654
000220 22 a7 82 be 78 43 46 3e c0 d7 67 3e d5 94 77 3e
       -0.25518137 0.19361675 0.22640896 0.24177869
000230 48 6b da 3d eb f8 b6 be d6 a6 96 3e b8 d9 0b be
       0.106649935 -0.35736784 0.2942416 -0.13657272
000240 35 bc fb bd f5 67 17 bd 00 d6 93 3e 7e aa 9a 3e
       -0.12291757 -0.036964376 0.28874207 0.302082
000250 f4 b3 8a 3d da 74 45 3e a4 66 c7 be be 02 1c bc
       0.067726046 0.19282857 -0.38945496 -0.009522138
000260 f9 b4 bd be 1a 4e 15 3e 1d eb 94 be 60 fe 14 be
       -0.37052134 0.14580575 -0.29085627 -0.14550161
000270 61 60 93 3e f1 ca c4 3e 2a af 83 be 2e 05 68 be
       0.2878447 0.38436082 -0.25719577 -0.22658226
000280 26 35 68 3d 24 5e 1c 3e d0 f5 9f bd 68 e4 0d be
       0.05669131 0.15270287 -0.07810557 -0.13856661
000290 a7 4b 89 be 9f ea 34 3e 73 32 cd 3e 12 5e 4a be
       -0.2681553 0.17667626 0.40077552 -0.19762447
0002a0 f7 65 4f 3e 62 d0 40 3e 9f 62 aa 3e 78 62 3e bd
       0.2025374 0.18829492 0.33278367 -0.046480626
0002b0 0b 54 06 ba dd 5d 94 3e e4 df 7e 3e be f8 c7 3e
       -0.0005124218 0.28977862 0.24890095 0.39056963
0002c0 64 7c 00 be 86 c4 17 3e 44 38 8b 3e 64 e3 8d be
       -0.12547451 0.14821061 0.27191365 -0.27712548
0002d0 01 ce 80 3d f1 2b ca bd a3 c1 82 3e db 8a 48 be
       0.06289292 -0.098716624 0.25538358 -0.19584219
0002e0 64 dd 9c 3c e4 f6 76 3e 59 7d bf be a5 1d b8 be
       0.019148536 0.24117619 -0.3740032 -0.35960117
0002f0 26 44 5c be 23 60 8b 3e e3 9f 8c 3e bf 53 93 be
       -0.21510372 0.27221784 0.27465734 -0.2877483
000300 e6 69 8b 3d cc 96 65 be 8c 09 42 be cf 7b af 3e
       0.06807308 -0.22420806 -0.18948954 0.34274146
000310 17 b3 4d 3e 34 a8 e4 bd 1d 76 6c 3d ac ff a1 3d
       0.20087849 -0.11164895 0.05772983 0.07910094
000320 e0 d8 c3 3d 43 78 0d be 56 a6 6b be 52 30 86 3e
       0.0956285 -0.13815407 -0.23012671 0.2620874
000330 30 01 4d 3d 95 38 3d 3e 98 53 1e be 8b b4 54 3e
       0.05004996 0.18478616 -0.15461576 0.20771997
000340 d3 2f 94 3e 32 39 75 3e 72 3e ed 3d 2d 60 c8 3e
       0.28942737 0.239476 0.11584176 0.39135876
000350 1a 44 2f bc f8 b2 c8 3d a5 57 c2 3e 16 b1 c5 3e
       -0.010697389 0.097997606 0.37957492 0.38611668
000360 87 9c 31 be 87 68 b7 3e 1c 99 12 3e f4 61 51 bd
       -0.17344867 0.35821936 0.14316219 -0.051118806
000370 89 67 b5 3e db a6 54 be ca eb 85 3e 13 3e ca 3e
       0.35430554 -0.20766775 0.26156455 0.39500484
000380 e8 29 90 be a6 af 76 be 89 4a d2 be 18 77 96 bd
       -0.28156972 -0.24090442 -0.4107249 -0.07346934
000390 6a cd c0 be 66 df 13 be 1f 30 04 3e 2b fd 8f 3e
       -0.37656718 -0.14440688 0.12908982 0.2812284
0003a0 67 96 61 3e ac 0c 68 3e 2d e8 31 3e a2 a4 81 be
       0.2203003 0.22661084 0.17373724 -0.25320917
0003b0 26 7f a9 be f0 a2 8a 3c 02 ea bf 3e 24 73 4f 3c
       -0.3310482 0.016923398 0.3748322 0.012661729
0003c0 10 d3 0f bd 30 df 8d be f1 0d 56 be da 20 a1 be
       -0.035113394 -0.2770934 -0.20903756 -0.31470376
0003d0 cc 4c a3 3e 72 e2 98 bd e2 55 bd be 2f da 2a 3d
       0.3189453 -0.07465066 -0.36979586 0.041711982
0003e0 38 12 cc 3c 23 64 69 bd 4b a0 1e 3e 0c 1c 57 3e
       0.024911031 -0.056980263 0.15490834 0.21006793
0003f0 29 a4 c7 be 2b f2 a4 be d0 a9 a0 bc 11 cb c1 be
       -0.38992432 -0.3221601 -0.019612223 -0.3785024

backbone.3.weight f4 [256, 256]
000000 28 32 75 bd ef af 5d 3d 8f 30 62 bc cc a0 e8 bc
       -0.059862286 0.05412286 -0.013805523 -0.028396986
000010 e8 9f af bc b8 e5 48 bd 71 8b 4c 3d f5 fd fc bb
       -0.021438554 -0.049047202 0.04993767 -0.0077207037
000020 5a 9f 18 bd c3 aa 39 bd 24 52 15 3d f4 71 97 bc
       -0.037261344 -0.045328867 0.03645529 -0.018486954
000030 ef ab a6 ba 2b 48 f0 bc e2 ff 0b bd 92 8d 81 3c
       -0.0012716035 -0.029331287 -0.034179576 0.015814576
000040 b4 a6 63 3d 5e 5f 14 bd b8 a7 21 3c 00 b1 42 bd
       0.055578902 -0.03622376 0.009866647 -0.04753208
000050 48 13 f0 bc 43 fb 2d 3d 80 c9 2b 3a 14 9c 76 3d
       -0.029306069 0.04247595 0.0006553158 0.06020744
000060 f4 87 bd bb 8f 0e 1a bd e7 f4 47 bd 17 1b 3b 3d
       -0.005784029 -0.03761154 -0.04881754 0.04568013
000070 54 dc 44 bd ec 58 06 3d f8 12 04 3c 87 01 0b 3c
       -0.048061684 0.032799646 0.008061163 0.008484251
000080 f5 81 3c 3d 95 7f 26 bc 76 7f 43 3d 50 6f 49 bd
       0.046022374 -0.010162254 0.047728978 -0.04917842
000090 37 5e 8c bc 75 a8 52 3d 94 9a 9d 3c 35 89 21 bc
       -0.017134769 0.051430184 0.019238748 -0.009859373
0000a0 a8 22 6f bc 4e fe 16 bd e6 ab 1b 3d 04 a5 8c b9
       -0.014595665 -0.036863618 0.038005732 -0.00026825827
0000b0 f3 e1 e6 b9 ef 9b 07 3c 2e ea 3c 3d 9d 93 28 bd
       -0.00044037364 0.008276924 0.04612177 -0.0411564
0000c0 5c fb fa bc 64 f9 13 3d c8 58 2d 3d 80 0b 2f bd
       -0.030637436 0.03612651 0.042320997 -0.042735577
0000d0 e9 45 76 bd 78 08 4f 3c fe a0 06 3d f4 b2 e5 3b
       -0.060125265 0.012636296 0.032868378 0.0070098583
0000e0 ba 97 46 3d 1e 21 4b bd 09 a5 df 3c 80 02 1a bd
       0.04848454 -0.04959213 0.027300375 -0.03760004
0000f0 33 96 24 3d 75 3a 3c 3d c0 f1 7d 3c 2e f9 41 3d
       0.040182304 0.045954186 0.015499532 0.047356777
000100 28 be 28 bd 82 7c 4c bd 78 05 62 bd 90 b9 20 3d
       -0.041196972 -0.049923427 -0.055180997 0.039239466
000110 d2 9b 79 3c df f4 43 bd d2 54 fe 3c 21 63 88 3d
       0.015234904 -0.04784095 0.031046305 0.06659532
000120 b6 fd 64 bd 53 ef 16 3d e1 d1 ec 3b 06 38 76 3b
       -0.05590602 0.03684933 0.007227168 0.0037570014
000130 c1 e1 81 3d c2 d4 67 3d 2a d3 8b 3c 9f af 54 3d
       0.06341887 0.056599386 0.017068464 0.051925298
000140 28 01 d5 3c 40 08 37 3c 24 60 44 bd 63 50 92 ba
       0.026001528 0.011171401 -0.04794325 -0.0011162873
000150 58 21 36 bd a4 a0 9d 3c f1 af 59 3c 90 20 83 3b
       -0.044465393 0.019241638 0.013286577 0.0040016845
000160 31 3b 3f bd 8b 6c 3d bd e7 65 0d 3d 89 55 0b 3d
       -0.04668731 -0.046246093 0.03452101 0.03401712
000170 66 7e 07 3d 57 db 3f bc 38 54 30 bc d4 36 83 bc
       0.033079527 -0.01171001 -0.010762267 -0.016017355
000180 ac 0c 30 3d f0 81 b5 bc ff 3d 11 3d aa 82 30 3d
       0.042980835 -0.022156686 0.035459515 0.04309336
000190 58 20 6a bd 80 11 7c b9 6b 47 cf bb 6e ec 0f bd
       -0.05715975 -0.00024039112 -0.0063256524 -0.035137586
0001a0 f5 ba 81 3c 1b cb 32 ba 4e 21 60 3d 55 ce 26 bd
       0.015836218 -0.0006820426 0.05471926 -0.040724117
0001b0 0e 91 a2 3c 70 d0 4f bd a6 06 19 bd 94 3e 03 3c
       0.019844558 -0.05073589 -0.037359856 0.008010525
0001c0 52 c8 49 3d 34 0d 0a 3d b6 26 61 bd 3c 36 29 3c
       0.049263306 0.033703998 -0.05496856 0.010327872
0001d0 a2 55 f7 bc 18 d7 b6 bb 70 36 36 bd 63 8a dd bc
       -0.0301922 -0.0055798404 -0.04448551 -0.027043527
0001e0 c4 e7 36 3d a6 e3 6a bd 44 f2 7a bd 37 9b f8 3b
       0.044654623 -0.05734601 -0.0612662 0.0075868624
0001f0 d1 4e 24 3c 2c 4d b9 bc b1 9d 63 3d 80 22 1a bd
       0.010028557 -0.022619806 0.055570308 -0.037630558
000200 9c 69 1b bd 98 5a 3f bd e8 96 3e bc e5 38 9a bc
       -0.037942514 -0.046717256 -0.011632659 -0.018825958
000210 30 83 fa 3c b2 6b a3 ba 50 82 a3 3c 41 88 a2 bc
       0.030580133 -0.0012468009 0.019959599 -0.019840362
000220 4a e3 5c 3d 14 d0 57 3d b6 32 84 bd 22 b4 94 bc
       0.053927697 0.052688673 -0.06454985 -0.0181523
000230 20 37 59 bd e8 82 d9 3c db da 55 bd 72 9d 1d bd
       -0.053031087 0.026551679 -0.05221067 -0.03848023
000240 51 00 86 3d 6b ab 64 bd 03 58 40 3d df ac b8 3b
       0.06543029 -0.05582754 0.046958935 0.005635842
000250 51 ae 60 3d c8 d2 1f bd af b0 08 3d 00 85 42 3c
       0.05485374 -0.039019376 0.033371624 0.01187253
000260 a5 e3 da 3b df 71 49 3d c0 55 73 bd 0e 32 4e bd
       0.0066799694 0.04918086 -0.05940795 -0.050340705
000270 de 71 6e 3d 9b 4f 23 bd 54 01 2b bd c0 45 48 bb
       0.05821406 -0.03987084 -0.041749313 -0.0030559152
000280 bc e0 84 bc c8 ec ab bc 43 12 2c bd 3c f4 8b 3c
       -0.016220443 -0.02098693 -0.042009603 0.017084233
000290 86 48 5c bd e3 94 b5 3b 75 d4 e1 3c 50 bf 44 3c
       -0.0537801 0.0055414303 0.027567128 0.012008503
0002a0 e9 b5 6c 3c 11 a7 38 3c ba 98 84 bc f8 11 43 bc
       0.014447668 0.0112703005 -0.016186107 -0.01190614
0002b0 17 64 97 bc 74 13 28 bd 71 e4 0e bd fc 41 8a 3d
       -0.018480344 -0.041034177 -0.034885827 0.06750867
0002c0 1c 42 e3 bb 29 a5 b4 3c 08 c2 3e 3d 40 fc 9f bb
       -0.006935371 0.02205141 0.04657176 -0.0048823655
0002d0 10 b0 07 bd 8f d1 1a bd 06 90 b2 bc eb 98 cc 3c
       -0.03312689 -0.037797507 -0.021797191 0.02497526
0002e0 44 80 6b bd c2 c6 4f bc 08 c2 c2 3c 1c db 54 3d
       -0.05749537 -0.012681665 0.023774162 0.05196677
0002f0 90 13 9a 3c 27 93 12 3c 92 f2 0c 3d 0f dc fd 3c
       0.018808156 0.008946217 0.03441102 0.030988721
000300 8c ca bd 3c 12 53 f8 bc 3e 49 4d bd 23 35 9d bc
       0.023167871 -0.030313049 -0.050118677 -0.019190377
000310 26 4c 18 bc 40 66 96 3b 20 82 03 bc e8 fe ce 3c
       -0.009295499 0.004589826 -0.00802663 0.025268033
000320 f4 1f 2a 3d 9e d0 b0 bc 6d 88 64 bd f2 11 dd bc
       0.04153438 -0.021583851 -0.05579417 -0.026986096
000330 ca 9a e3 bc 8b 91 27 3d 94 21 25 bd 96 01 93 bc
       -0.02778377 0.040910285 -0.040315226 -0.017945092
000340 b8 b9 1c bc e3 5a 35 bd 26 8e e2 3c 13 65 a4 bc
       -0.009565763 -0.04427613 0.027655672 -0.020067727
000350 0b 6b 49 bc 46 f0 61 bd d5 e7 ab bb 75 89 cc 3b
       -0.012293587 -0.055160783 -0.0052461424 0.006241972
000360 80 c8 4f b9 c7 a0 e8 bc f0 35 64 3c 9c 00 52 bc
       -0.0001981575 -0.028396977 0.013928875 -0.012817528
000370 f2 cf 34 bd a3 fe 20 bd 0c 0a ba bc 47 66 83 bd
       -0.044143625 -0.03930534 -0.022709869 -0.06415992
000380 30 7c 54 3d bc 98 f4 bc 0b 12 89 bc b0 50 bd 3b
       0.051876247 -0.029857986 -0.016732236 0.005777441
000390 64 cc 57 3c 7e 43 09 bc 1f 7e 26 3d 1b 2d de bc
       0.013171289 -0.008377908 0.040647622 -0.027121117
0003a0 d2 a8 ca 3c 00 ce 13 b9 d4 05 44 bd 84 4b c6 bc
       0.024738703 -0.00014095753 -0.04785712 -0.02420593
0003b0 55 b2 65 3c 78 a0 43 3c 3c b2 2f 3d 05 fe 3c 3d
       0.014019568 0.011940114 0.042894587 0.04614069
0003c0 d4 a0 0b bd 9c a3 da bc ea 26 39 bc 56 67 37 bd
       -0.034088925 -0.026689343 -0.011300782 -0.044776283
0003d0 68 79 48 bc a0 81 55 bd bc 40 bb 3c 23 45 35 3d
       -0.012235977 -0.052125573 0.022858016 0.044255387
0003e0 0e 95 21 3b 46 33 28 bd fd 40 6f bd f8 31 a7 bc
       0.0024655494 -0.041064523 -0.058411587 -0.02040957
0003f0 38 2d 9b 3c ef 67 14 bc 88 2f 3a 3c 74 46 71 3d
       0.01894246 -0.009057983 0.011363871 0.05890508

backbone.3.bias f4 [256]
000000 d6 0d 4c bd 41 bc c8 3a e6 74 a1 bc a3 38 56 3c
       -0.049817882 0.0015314893 -0.019709062 0.013075027
000010 5e e9 63 bd 6b 22 be 3c 51 49 1a 3d 4e 3e 3c 3d
       -0.05564248 0.023209771 0.037667576 0.045957856
000020 9d 09 7a bb 5b 92 4c bd 2f 05 d3 3c 21 ec e6 3c
       -0.0038152703 -0.049944263 0.025759308 0.028188767
000030 17 7b 1c bd 12 36 d7 3c b3 06 9c 3b a6 1d e1 bc
       -0.038203325 0.0262709 0.004761541 -0.027479958
000040 e2 3b 18 3d 88 1d c4 3c 0e 42 f2 3b ad 36 2b bd
       0.037166484 0.023939863 0.0073931282 -0.04180019
000050 7b b4 7b bc b1 0b 3f 3d e3 2d f5 bb 80 30 8c bd
       -0.015362854 0.04664201 -0.0074822768 -0.06845188
000060 a0 cd cc 3b 74 b9 06 bd 3d 8b 90 3c 43 ff 04 bd
       0.0062500983 -0.032891706 0.017644519 -0.03247
000070 f2 c6 ad bc 9f 8c 50 bd 0d cb 84 bd e0 26 42 bd
       -0.021213029 -0.050915357 -0.06484041 -0.047400355
000080 48 ba 3b bd 50 9a 14 3b 66 00 fe 3c 42 08 04 3d
       -0.04583195 0.0022674985 0.03100605 0.032234438
000090 3e 9f 28 bd 5d ed 23 bd 2a 6e 80 3c 9d 0e e5 bc
       -0.04116749 -0.04002129 0.01567753 -0.02796107
0000a0 b9 0a 2f bd b2 f3 10 3b 56 6f bd 3c b8 b5 f2 37
       -0.042734835 0.002211791 0.023124378 2.8933267e-05
0000b0 50 32 7d bd 9b 3d 18 3c e6 ce e7 3c 2b 88 a7 bb
       -0.06181556 0.009292032 0.028296899 -0.005112668
0000c0 9b 54 2b bd 29 ab 73 3c c5 a9 8a 3b 28 61 9f bc
       -0.041828733 0.014872351 0.004231664 -0.019455507
0000d0 0a 31 fa bc a6 41 1f bd 02 4f 2e bc dd 56 5b 3c
       -0.030540962 -0.038880967 -0.010638954 0.013387409
0000e0 13 80 17 bd a8 e7 d8 3b a6 7c 11 bd a8 e8 aa bc
       -0.036987375 0.0066194125 -0.035519265 -0.020862892
0000f0 39 c4 c2 38 8f 7b b6 3c b6 d3 0d 3d ef 45 71 bd
       9.28719e-05 0.022275714 0.03462573 -0.058904584
000100 a3 36 3c bc e7 f8 a2 bc 85 fa 0e 3d 8c c1 a3 bc
       -0.011487636 -0.019894077 0.034906883 -0.019989751
000110 4f 7b c1 bc 92 86 37 bd ce 48 c7 3c 91 61 c8 bc
       -0.023618368 -0.04480607 0.024326708 -0.024460586
000120 50 61 96 bb ce b3 00 bd 6c 5a 33 bd 9e 9c 7d bd
       -0.0045892373 -0.031421475 -0.043787405 -0.06191694
000130 cd a9 36 bc bd b3 6e bb cd 07 90 ba 21 4f 46 3d
       -0.011148882 -0.003642305 -0.0010988653 0.048415307
000140 c7 b4 26 bd 19 19 60 bb 53 08 79 ba ae 10 13 3d
       -0.040699746 -0.0034194647 -0.00094998366 0.03590458
000150 52 44 12 3d 01 0c 04 3d 18 5b 6a bd 25 9c 16 3c
       0.035709687 0.03223801 -0.05721578 0.009192501
000160 77 3c 77 bd a6 0c 43 3c 04 a2 84 bd d6 b6 6f 3d
       -0.0603604 0.011904871 -0.064762145 0.058523975
000170 dd f1 5b 3d 1d b7 6c 3b b0 48 0f 3a ae c8 76 bd
       0.053697456 0.0036119886 0.00054658484 -0.060249977
000180 48 96 ff bc 0c 3c e6 bb 50 a8 e7 bb 6c 29 8d bd
       -0.03119959 -0.007026201 -0.007069625 -0.06892666
000190 ce 80 37 bd 1f b1 22 bd 14 67 aa 3d 29 2c e7 3b
       -0.044800572 -0.039719697 0.08320442 0.007054825
0001a0 ab c0 26 bd 09 bf e3 3c 7f 57 6b bd f3 bf a4 3c
       -0.040711086 0.027801054 -0.05745649 0.02011106
0001b0 9b c7 2e 3d 96 39 91 bb 4e a6 19 3c 89 84 ef bc
       0.042670827 -0.0044319136 0.009378029 -0.029238002
0001c0 41 12 8d bc 6c 96 14 bd 1f 99 6f 3c 73 cd e7 bc
       -0.017220618 -0.036276266 0.014623909 -0.028296208
0001d0 60 cc df bb cd 83 6e bd 01 6e 8a 3c f6 58 85 bd
       -0.0068297833 -0.058231164 0.016898157 -0.065111086
0001e0 60 5f 2f bd c0 35 93 3c 19 be 5e 3d c5 dc 65 bd
       -0.042815566 0.017969966 0.05438051 -0.056118745
0001f0 d2 78 8e bd 83 45 e1 3c a0 7f e3 bc c5 19 9a 3c
       -0.069566384 0.027498966 -0.027770817 0.018811116
000200 17 d3 4b 3d 30 36 15 3d f2 04 18 3c 8a 78 09 bd
       0.049761858 0.03642863 0.009278523 -0.03356222
000210 64 c5 f7 bc 7a 39 91 bb 74 7e 0d 3c 8c fc 0e 3d
       -0.03024549 -0.0044319006 0.008636106 0.034908816
000220 16 f0 21 3d 63 9a c4 3a e5 5c eb bc 03 1d 58 3d
       0.039535604 0.0014999624 -0.028730819 0.052762043
000230 d9 d6 46 bd ee 1e 78 bd 97 1b 5a 3b 27 b1 af 3c
       -0.04854474 -0.06057637 0.0033280605 0.021446778
000240 ee 70 91 3b 56 f4 3d bc b6 1f ed 3c fe 50 55 bd
       0.004438511 -0.011593899 0.028945785 -0.052079193
000250 fd c5 89 bb 1d 92 0c 3d 4d b8 88 bc 9e 2d 4c 3d
       -0.0042045102 0.034319032 -0.016689444 0.04984819
000260 19 5b 10 bd 9a 77 46 bd ba e2 3f 3d 09 df a4 3b
       -0.035243127 -0.048453905 0.046847083 0.0050314707
000270 c6 61 65 bd 36 24 02 bd 1a df 1d 3d 2f bc ed bc
       -0.056001447 -0.031772815 0.038542844 -0.029020397
000280 90 76 5b 3d 5c 43 8b bd 59 87 c5 3c a0 7e c3 bc
       0.053579867 -0.06799957 0.02411239 -0.02386409
000290 52 43 84 bd 98 d2 41 bd 92 29 40 3d a6 5b e1 bc
       -0.06458153 -0.04731998 0.046914645 -0.027509522
0002a0 65 29 86 bd fb 0c 58 3d 4f 7e 62 3c 0c e3 52 3d
       -0.06550864 0.052746754 0.01382406 0.05148606
0002b0 72 cc 4a bd 8f b4 40 bd 2b ae 2b 3d a8 a9 2f 3d
       -0.04951138 -0.047047194 0.041914146 0.042886406
0002c0 90 68 ce bb e6 59 2f bd 44 29 be 3c 33 4c e2 bb
       -0.006299086 -0.042810343 0.023213036 -0.0069060563
0002d0 59 bc 1a 3d 38 da 8e bd c8 ee 22 bd 46 58 3d 3d
       0.03777728 -0.06975216 -0.0397785 0.046226762
0002e0 9b 2f 8e bc 22 99 6e 3d 70 54 c2 3c 4b 16 ba 3c
       -0.017356684 0.058251508 0.023721904 0.022715708
0002f0 ad f2 b7 3c b0 f7 9f 39 a7 cb 4d 3d 38 e3 aa ba
       0.022454584 0.00030511385 0.050243046 -0.0013037687
000300 96 56 38 3d 3f 63 17 bd 35 97 17 3d 49 c9 32 bd
       0.04500445 -0.036959883 0.037009437 -0.04364899
000310 16 ca e5 bc 31 99 15 ba 1a 54 ae bc fc af c9 3c
       -0.028050464 -0.0005706726 -0.021280337 0.024620049
000320 13 c3 25 bd 89 94 ba bb cc 84 9e 3c 32 b0 0a 3d
       -0.04046924 -0.0056939763 0.019350432 0.03385944
000330 aa 70 04 3c c8 43 65 bd f0 16 8c 3c 76 bf 48 3c
       0.008083502 -0.055972844 0.017100781 0.012252679
000340 60 ca 84 bb f6 52 47 bd 53 7e f4 bc 9e 52 81 bc
       -0.0040524453 -0.048663102 -0.029845392 -0.015786465
000350 91 08 eb bc 93 65 1b bd ee 00 5e bd 79 a2 8a 3c
       -0.028690608 -0.037938666 -0.054200105 0.016923176
000360 97 3c 81 3b 2f a9 fa 3c 82 63 1c bd 0b 0a be 3c
       0.0039439905 0.030598251 -0.038180836 0.023198148
000370 91 2d 3e 3c 76 30 37 bd 94 2e e4 bb 63 69 0a bd
       0.011607544 -0.04472395 -0.0069635604 -0.03379191
000380 6f 6e 1d bc bd ee d1 3c ea 97 16 bd 88 b0 fa 3c
       -0.009608849 0.025626535 -0.03676597 0.030601755
000390 b6 45 59 ba ff 87 2d bc 66 bb b8 3b ae 00 3b bc
       -0.0008288281 -0.010591506 0.005637574 -0.011413736
0003a0 14 ad a4 bc 53 8f 4c 3b ea 81 86 bd b7 5d 80 bd
       -0.020102061 0.0031213358 -0.06567748 -0.06267875
0003b0 50 08 5d 3c 4f 4e e0 bc 43 c5 66 3c e2 5d 14 3c
       0.013490751 -0.02738109 0.014085117 0.0090555865
0003c0 53 9a be 3c 71 02 3a 3d 2a 7d 29 bd ca de 20 bc
       0.023266947 0.045412485 -0.04137913 -0.009818742
0003d0 ac d9 da 3c 81 9a 8a bd b5 dd 5e 3c cd 28 ce 3c
       0.026715122 -0.067677505 0.013602664 0.02516594
0003e0 3d 44 33 3b 6c 5c 5f bd c5 9b 38 3d d4 e2 ad bc
       0.0027353906 -0.0545315 0.04507043 -0.021226324
0003f0 41 94 2a 3d 6b d0 26 bd 5d 24 29 bd 1c 6b 15 3d
       0.041645292 -0.040726107 -0.041294444 0.0364791

backbone.6.weight f4 [256, 256]
000000 45 26 0a bd 5f e7 10 3d b8 69 08 3c 06 e4 46 bd
       -0.033727903 0.035376903 0.008325987 -0.048557304
000010 47 fe 44 3d cf 91 5f bc ef de 90 3b 22 c6 1e 3d
       0.04809406 -0.013645603 0.004421107 0.038763173
000020 aa f7 29 3d 65 be 90 bd 85 f4 35 bc 50 df 84 bc
       0.041495956 -0.07067565 -0.011105661 -0.016219765
000030 6f 19 33 bd fc 4e 90 bd 0d d1 1a bc 51 47 6d bd
       -0.043725427 -0.07046315 -0.009449256 -0.05792934
000040 cf c3 0c bc 01 5b 54 bd a2 6c 1f bd fd ed 06 3d
       -0.008591606 -0.0518446 -0.03892196 0.032941807
000050 ff 12 3d 3d 0e 50 51 bd 05 c8 24 3d c2 e5 6a bd
       0.046160694 -0.051101737 0.040229816 -0.05734802
000060 7d ea b6 3b dc f8 93 bc 59 b3 47 bd e4 27 e7 bc
       0.0055821524 -0.018063001 -0.048755024 -0.028217264
000070 13 b0 de bc 4a 94 1b bd 15 2c ad bc 9e 46 0f bc
       -0.027183568 -0.037983216 -0.021139184 -0.008744864
000080 cf d1 05 bd 6a 96 99 bc ea 03 c3 bc 3c 68 18 bd
       -0.032670792 -0.01874848 -0.023805577 -0.03720878
000090 46 4f 19 bd f1 cf 0b 3c 3e 6f d1 3c 44 8a 5d 3c
       -0.037429117 0.008533464 0.02556574 0.013521735
0000a0 47 49 dd bb d1 bc 8e bd e1 37 ce bb 89 9b 44 bc
       -0.00675312 -0.069696076 -0.0062932824 -0.011999973
0000b0 20 f7 42 bd c8 c1 1b 3d f5 8a 5f bd bc 44 3b 3d
       -0.047598958 0.0380266 -0.05457588 0.045719847
0000c0 ae 63 a3 bb c5 f6 76 bc 85 1b 2e 3d 28 49 e5 3c
       -0.004986248 -0.015073483 0.042506713 0.027988985
0000d0 77 dd 45 3d 9a 80 65 3c 1b 11 00 bd d4 1b 2c 3d
       0.04830691 0.014007712 -0.031266313 0.042018726
0000e0 f5 a4 3c 3c cf 0d 00 3c 06 5a 7c bd 1d d3 79 bc
       0.011513938 0.007815792 -0.06160929 -0.015248087
0000f0 bf 0c 85 bc db 66 1a 3d 11 26 26 3d 33 e4 23 bd
       -0.01624143 0.037695747 0.040563647 -0.04001255
000100 b2 d7 55 3d fb 02 70 3b 06 18 72 bd 5c 33 8a bc
       0.052207656 0.003662287 -0.05910494 -0.016870193
000110 15 09 84 bc ca 13 d4 bc 3f c4 05 bc dc ab 0e 3d
       -0.016117612 -0.025888342 -0.0081644645 0.034831867
000120 34 13 05 bd 4b cc fc bc 41 3f 54 3d b5 11 16 bd
       -0.032489017 -0.030859133 0.051818136 -0.03663798
000130 5f ed 89 bd 7b 0b b6 3c e2 9c 48 3d 55 f6 26 3d
       -0.06734728 0.022222271 0.04897774 0.040762264
000140 15 08 49 bd c2 8c 05 bd b0 36 3b bd 95 7f db 3b
       -0.049079973 -0.03260494 -0.04570645 0.0066985586
000150 b0 a6 62 bb c5 db 4a bd b6 f8 45 3d b0 3f ef 3c
       -0.0034584217 -0.049525995 0.048332892 0.029205173
000160 18 6b 22 bc b9 3a ea bc b4 9a 0c bd 88 6d 75 bd
       -0.009913228 -0.028592454 -0.034327224 -0.05991891
000170 98 58 26 3c ec 33 cd 3b cf 3e 5d bd 24 ff 21 bd
       0.010152958 0.006262293 -0.054014977 -0.03954996
000180 01 9b ca 3b 09 54 2d bd dc 6d 4a 3c 77 cd b4 ba
       0.0061830287 -0.04231647 0.012355294 -0.0013794143
000190 39 5c c4 bc 04 30 56 3d 2c 86 31 3d c4 d2 c9 3c
       -0.023969756 0.052291885 0.043340847 0.024636634
0001a0 14 52 53 bc 8a 76 22 bd c4 af be 3c a1 6f 5f 3b
       -0.012897987 -0.03966383 0.023277171 0.0034093636
0001b0 93 65 d7 3b dd 86 93 bd e2 ed 33 bd 5a 8e ea bc
       0.006573388 -0.072034575 -0.043928035 -0.028632332
0001c0 da e0 40 3d b7 d0 da bc 25 3f 85 3c 56 a3 5b 3d
       0.047089435 -0.026710851 0.016265461 0.053622566
0001d0 69 00 64 3b ab d8 19 bc dd 86 66 bd cd aa 83 bd
       0.0034790284 -0.009390037 -0.05628096 -0.06429062
0001e0 8a ec 3a bd dd 12 7b bd 66 09 13 3d de e9 26 3c
       -0.045635737 -0.061297286 0.035897635 0.010187594
0001f0 40 24 02 bc fb fa 39 3d 96 63 47 bd 2b 72 46 3d
       -0.007943213 0.04540537 -0.048678957 0.048448723
000200 34 66 0f 3d 8e c3 e8 3b 39 41 84 bd 54 89 5d bd
       0.035009578 0.00710339 -0.06457753 -0.054086044
000210 52 df f6 bc 3b 21 56 bd fb e8 0c 3d 7e 70 95 bb
       -0.030135784 -0.052277785 0.034401875 -0.0045605293
000220 93 80 c5 bc f5 d9 69 bd a7 b7 73 3a f1 99 2f 3d
       -0.02410916 -0.057092626 0.00092970807 0.04287142
000230 ff 03 3a 3c 4c b2 6f bd ee 32 fc 3b 00 ec 17 3d
       0.011353492 -0.058519647 0.007696501 0.0370903
000240 2e d9 61 3d 8f 63 52 3c 8d e5 40 3d 9b 48 13 bd
       0.05513876 0.012841119 0.047093917 -0.035957914
000250 ca 9b 3a 3d 4e ae 2a bd 85 b0 6e 3c d2 96 73 bd
       0.04555873 -0.041670136 0.014568453 -0.059470005
000260 44 be e8 3c 37 0f 71 3c 1f f4 36 bd c4 8f 0c bb
       0.028411038 0.0147131 -0.044666406 -0.0021447996
000270 82 3d 53 bd 7e ea 34 3d a4 2f 5b bd 3f 60 ce bc
       -0.05157233 0.04416894 -0.05351223 -0.025192378
000280 a5 b2 b0 3a c8 29 40 bd 04 f7 be bc bf 1e 4d 3d
       0.0013480975 -0.046914846 -0.023311146 0.05007815
000290 77 56 6c bd 4c 21 b0 bc 46 08 2c 3c df 71 39 bc
       -0.057699647 -0.021500252 0.010500019 -0.011318653
0002a0 58 ad 36 3b 1c ee 1b 3d e6 5e 56 bd a5 26 1a bd
       0.0027874317 0.038068876 -0.052336596 -0.03763451
0002b0 3e 07 04 3d 9a 7b b1 3b 6b ab 3b 3d e1 4a e2 bc
       0.03223347 0.005416346 0.045817774 -0.027623596
0002c0 29 28 5d bd 6a 15 fd bc e4 f2 73 bd 42 04 9a bb
       -0.053993378 -0.030894 -0.05955781 -0.0047002146
0002d0 9b 51 38 3d 2f 24 af 3c 00 af 08 3d 14 f9 fa bb
       0.0449997 0.021379558 0.033370018 -0.007659087
0002e0 33 7c 3b 3c 25 bb f7 bc 96 ac 24 bd a9 58 71 3c
       0.011443186 -0.030240605 -0.040203653 0.014730611
0002f0 14 2f 1f 3d c4 a4 83 3b 72 6e 1e bd ba 79 16 bd
       0.038863257 0.0040174443 -0.038679548 -0.03673718
000300 d5 a7 ec 3a bc 78 3d bd c7 a0 14 3d 0e 29 2e 3d
       0.0018055389 -0.04625772 0.03628614 0.04251962
000310 e4 9c 0a 3d 06 f5 99 bb 32 3e df bc 58 5b 38 bd
       0.03384103 -0.0046983985 -0.027251337 -0.045008987
000320 e3 ee 98 bc d4 32 17 3a 3e 05 cd bc de 44 bd 3c
       -0.018668598 0.0005767767 -0.025026914 0.023104127
000330 77 df 21 3c 91 d8 d7 3b 84 e6 72 3c ea d1 26 3c
       0.009879938 0.006587096 0.014825467 0.010181883
000340 24 fc 5f 3c 04 b8 f6 3c 29 ec 42 3d 47 2f e6 3c
       0.013670955 0.030117042 0.0475885 0.028098715
000350 41 6b 62 bc 8d 6d db 3c d6 d4 28 bd f5 30 38 3b
       -0.013819517 0.026785636 -0.0412186 0.0028105353
000360 2f 8c 7e bd d6 8f 84 3c f0 49 68 bd 1c a6 06 bd
       -0.06214541 0.016181868 -0.056711137 -0.032873258
000370 28 64 16 3d 8b 01 0b 3d f6 4c 7c bd d6 7d 05 bd
       0.03671661 0.03393702 -0.061596833 -0.03259071
000380 0f 37 09 3d 4b da 6e bd df 60 03 bc 15 b8 3e bd
       0.033499774 -0.05831365 -0.008018701 -0.046562273
000390 5a e1 89 3d 05 11 b0 bc eb c3 29 bc a5 0e 18 bd
       0.067324355 -0.02149249 -0.010361652 -0.03712334
0003a0 94 93 13 bd 41 07 b2 3a f0 26 28 3d c9 ae 57 bd
       -0.036029413 0.0013582484 0.04105276 -0.052656922
0003b0 4c 0c 02 bd 7e 46 07 bc c6 77 63 3d 49 a4 52 bd
       -0.03175001 -0.008256553 0.055534147 -0.051426206
0003c0 82 91 5b bd 14 ca 00 3d c3 07 d8 39 93 9c cb 3b
       -0.053605564 0.031442717 0.00041204513 0.0062137335
0003d0 56 31 74 bd 5a b5 65 bd 29 1d 9d bb bc 02 e4 ba
       -0.059617363 -0.056081153 -0.004794736 -0.0017395834
0003e0 cd d2 9f bb 70 39 d6 bc 90 06 ad bc 1b 2b 17 3d
       -0.0048774243 -0.026150435 -0.021121293 0.036906343
0003f0 78 f8 90 b9 a7 f8 84 3a 8d 87 8f bd 72 28 34 3c
       -0.00027650944 0.0010144905 -0.07008276 0.010995971

backbone.6.bias f4 [256]
000000 f7 1b cc bc 70 c8 d2 bc 33 d3 09 bd e1 ba fd 3c
       -0.024915678 -0.025730342 -0.03364868 0.0309729
000010 3e 29 71 3d bc 5e 09 3d dc 35 5d bd a5 75 1d bc
       0.058877222 0.03353761 -0.054006442 -0.009610568
000020 2a 36 45 3d 68 1b 18 bc a0 07 08 bd 3c cf 4b 3d
       0.048147358 -0.009283878 -0.033210397 0.04975818
000030 36 d3 20 3c 94 0e 5c 3b ad 55 e6 3c a5 db 57 3c
       0.009815982 0.0033578025 0.028117025 0.013174926
000040 a3 95 57 3c 47 df 28 3d 4c f2 96 3c df db 65 3c
       0.013158235 0.04122856 0.018426083 0.014029472
000050 2b 0d 50 3d fb cb 24 3d 50 01 3e 3d c9 7e e2 3c
       0.050793808 0.040233593 0.04638797 0.027648346
000060 5a e3 50 3c 5f 57 de 3a 3f be 95 3d c0 b6 0f 3d
       0.012749517 0.0016963294 0.07311677 0.035086393
000070 be 58 6e bd fd 7d 71 3c b8 94 51 bd bf 5d de bb
       -0.0581901 0.014739511 -0.05116722 -0.0067860777
000080 8e 19 3e bd a1 b4 79 3d f7 69 39 3d 5a a4 32 bb
       -0.04641109 0.060963277 0.04526707 -0.0027258606
000090 c6 05 02 3d 45 37 01 bb 89 71 56 bc 09 f5 34 bd
       0.031743787 -0.001971678 -0.013088592 -0.044178996
0000a0 58 e0 cc bc 35 49 21 bb 7f 6a 61 bc cd 1e 27 bd
       -0.02500932 -0.0024610285 -0.013758301 -0.04080086
0000b0 74 16 a8 bc 98 42 5c 3d 60 d4 66 bd fd 6b bf bc
       -0.020518519 0.053774446 -0.05635488 -0.023366923
0000c0 1c a4 cf 38 7d c1 30 3c 30 2e 3f 3d 7b e9 3e bd
       9.901097e-05 0.010788319 0.046674907 -0.046609383
0000d0 5c e8 8b 3d 78 16 80 bd 3f 3d 66 3c de f7 0a 3d
       0.068314284 -0.062542856 0.014052688 0.03392779
0000e0 66 85 b0 bc f7 48 66 bd 0f bb 00 bd c5 83 5e bd
       -0.021547984 -0.05622193 -0.031428393 -0.054324884
0000f0 fc 52 6d bd d4 47 7c 3c 96 a2 ca bc 42 5b 23 bc
       -0.05794047 0.015397985 -0.02473573 -0.009970488
000100 83 42 d2 3c 72 c5 87 3c e0 ad d3 3c 50 74 b0 3c
       0.02566648 0.016573641 0.025839746 0.021539837
000110 13 ab 4f bd d7 63 60 bd bf 18 c0 3b 9e b1 5c bd
       -0.05070026 -0.054782715 0.005862325 -0.053880326
000120 fc a5 48 3d 1e 9b 3f 3c ec 96 7a bd 86 00 6c bd
       0.04898642 0.011694698 -0.061179087 -0.057617687
000130 a7 4e 70 3c 40 56 ed bc 2a 6e 7f bc 26 48 4d bc
       0.01466719 -0.028971791 -0.01559023 -0.012529409
000140 2b ea d8 bc 93 e8 8a bd 12 32 72 bd e7 ab df 3c
       -0.026478847 -0.06782641 -0.059129782 0.02730365
000150 ba 0d 9a bc 2b c6 08 bd 9d d7 c9 3a 87 3c 6e 3d
       -0.018805373 -0.033392113 0.0015399341 0.058163192
000160 b3 eb c9 bc 50 ee d3 bb a7 4a 92 3c 0a 1b 0d bd
       -0.024648523 -0.006467618 0.017857863 -0.034449615
000170 1b 50 5c 3d 65 aa 83 bd 8c 56 29 bc 70 f8 86 bc
       0.053787332 -0.064289846 -0.010335576 -0.016475886
000180 76 e6 35 bd 98 c6 84 3d 5f f2 66 3c 84 bd fe bc
       -0.044409238 0.06483191 0.014095872 -0.031096227
000190 c6 f8 ed bc 57 21 97 3b 44 ea 03 bc 37 9e d6 b8
       -0.029049288 0.0046121287 -0.008051459 -0.00010233785
0001a0 b5 5e 12 bc 67 6d 1f bc 48 fb 42 3d fe c7 31 3d
       -0.008933713 -0.009730673 0.04760292 0.043403618
0001b0 8e 37 79 3c f8 8b 5d 3b 24 97 11 3d 04 0e 50 3d
       0.015210999 0.0033805352 0.03554453 0.050794616
0001c0 d1 61 87 bc 32 cb bc 3c 0c 3b a8 bc 90 4f 22 bd
       -0.016526135 0.02304611 -0.020535968 -0.039626658
0001d0 51 67 86 bd 12 e3 ce 3c 2b ad b3 bc fd fe 52 3b
       -0.06562675 0.02525476 -0.021933159 0.0032195442
0001e0 ae 45 43 bc 62 5c b9 3c ee 94 d8 3c 84 53 a8 3c
       -0.011918468 0.02262706 0.026438203 0.020547636
0001f0 74 44 fa bc 2e 8b 32 3d 35 b5 61 3c 22 e1 4f 3d
       -0.03055022 0.043589763 0.013776113 0.050751813
000200 5b 20 d4 bc f8 67 48 3b fc 16 f8 3c 48 97 c9 3b
       -0.025894335 0.0030579548 0.030284397 0.0061520673
000210 7f b5 84 3b 96 96 2f bd db 9f 43 3d 67 6e 55 3d
       0.0040499563 -0.04286822 0.047759872 0.05210724
000220 e1 3f 22 3d a5 64 12 bd ed ba a1 3c 65 94 69 bc
       0.0396117 -0.035740513 0.019742453 -0.014256571
000230 f7 82 c8 b9 82 25 8c bc 8e db fe 3b 3c 02 16 3d
       -0.0003824455 -0.017107729 0.007777638 0.036623225
000240 36 85 b4 3c 08 f2 2a bd d6 2c 76 3b 37 9e 72 bd
       0.022036176 -0.041734725 0.0037563345 -0.059232917
000250 b7 68 19 bd 24 09 4c bd d0 7c 1d 3d c7 ef 08 3d
       -0.03745338 -0.049813405 0.03844911 0.033431794
000260 67 3e 39 3d 25 e2 08 3d 72 17 09 bd fa a3 a4 3d
       0.045225527 0.033418793 -0.033469625 0.080390885
000270 8a 90 03 bd 75 a1 e5 bc 3d 71 e6 3c 44 a2 36 bc
       -0.032120265 -0.02803109 0.028130168 -0.011147086
000280 7c 36 82 bd da f6 b4 bc 47 12 e5 bc 57 69 f6 bb
       -0.06358048 -0.022090364 -0.027962817 -0.0075198817
000290 a3 53 61 bc fc 40 18 3c e8 04 3b 3b 77 bf 97 3b
       -0.013752851 0.009292837 0.002853686 0.0046309787
0002a0 6b 36 3b bd a9 27 f0 bc b0 e6 84 bd 01 38 f3 3c
       -0.045706194 -0.029315786 -0.06489313 0.02968979
0002b0 1a 05 01 3d e5 97 3f 3b 81 56 3d 3c 98 fc f0 bc
       0.031499006 0.0029234823 0.011556269 -0.029417321
0002c0 5c 8c 8e bd 51 48 3c bd 31 f1 59 ba 07 58 6b 3d
       -0.06960365 -0.045967404 -0.00083138334 0.057456996
0002d0 9d bd cd bc 5c c0 02 3d 7d 0e 2d bd 75 4d 61 bd
       -0.025114829 0.03192173 -0.042250145 -0.05500551
0002e0 c8 41 3c bc 52 5e da 3b b3 fe 4b 3d c4 0c ac bc
       -0.011490293 0.006664076 0.049803447 -0.02100218
0002f0 dc 5e 0e bd c0 76 81 3b 48 14 38 bd 4a 2a 05 bd
       -0.034758434 0.0039509237 -0.044941217 -0.032511033
000300 83 19 84 bd 2c 35 e9 bb 44 7f 8e bd f6 f4 8e 3b
       -0.064501785 -0.0071169343 -0.06957868 0.0043626977
000310 f8 57 ae bc e5 c0 ce 3c 8e 17 e5 bb 0a 85 3b 3c
       -0.021282181 0.025238464 -0.0069913333 0.011445293
000320 89 03 2f 3d 15 4a 5a bd 62 21 86 bd db ac 3f bc
       0.04272798 -0.053293306 -0.06549336 -0.011698927
000330 c7 3b 7e 3c ae 24 30 bd 96 ea c5 bc 54 bc 91 bd
       0.015517182 -0.04300373 -0.02415971 -0.07115999
000340 56 40 6e bd 35 8e bd bc 64 28 80 3c 27 09 04 bd
       -0.058166824 -0.023139099 0.01564426 -0.03223529
000350 56 f1 1d bd 13 9a ea 3c 2e fe 83 3d 81 aa 7b 3d
       -0.038560234 0.028637921 0.06444965 0.061441902
000360 f0 22 d8 bb 68 ad 99 bd 21 83 32 3d 21 7a 70 3c
       -0.0065959617 -0.07503778 0.043582086 0.014677555
000370 57 bd 27 3d 52 9d 3c 3c b5 8d 81 bd 3a 40 09 3d
       0.040952053 0.011512117 -0.063258566 0.033508517
000380 a0 da 38 3d e7 a8 08 bd c9 b8 c3 3c 86 66 90 bd
       0.045130372 -0.033364203 0.023891823 -0.07050805
000390 f5 57 d2 bc 33 7c 79 bc 44 a1 d8 bc 18 1c d2 bc
       -0.025676707 -0.015227365 -0.026444085 -0.025648162
0003a0 98 09 83 bd 29 b5 56 bc 03 4d 63 3d 15 86 32 bd
       -0.06398314 -0.013104715 0.055493366 -0.0435849
0003b0 0b f1 2c bb 7a fe 7a bb 83 ad 0a 3b bf ec 84 bd
       -0.002638879 -0.0038298653 0.002116055 -0.06490468
0003c0 ea 80 14 3d bf f4 5f 3d b9 6c 84 3c c4 e4 05 3c
       0.036255755 0.054676767 0.016165124 0.008172218
0003d0 e7 09 37 3d b1 f3 79 bd 00 49 94 bc 2a e8 d5 3b
       0.044687178 -0.061023418 -0.018101215 0.0065279203
0003e0 45 ab 25 3d 31 32 52 3d 61 84 e5 3c e0 d0 7e bd
       0.04044654 0.051317398 0.028017225 -0.062210917
0003f0 24 bc 87 3c 23 fc 78 bd f2 dc 01 bd bd 52 59 3c
       0.016569205 -0.06078733 -0.03170485 0.013264355

backbone.9.weight f4 [256, 256]
000000 49 79 98 bc 2b 97 0e bc 5b f5 3f 3c ee 66 51 3c
       -0.01861252 -0.008703033 0.011716212 0.012780888
000010 b6 e3 da ba 74 3a 16 bc 65 62 a9 bc 31 87 8c 3c
       -0.0016699943 -0.00916921 -0.020676801 0.017154308
000020 64 8a 99 bc 88 1a 3b bc e0 2c 32 bd 65 6a 33 3d
       -0.018742748 -0.0114199 -0.043499827 0.043802638
000030 a1 b5 61 3d 4d 31 4c bd 23 f8 51 bd f7 5e b6 3b
       0.055104855 -0.049851704 -0.051262032 0.00556552
000040 29 2e 18 3d 22 89 be 3c cc 10 07 bd 2f 91 5a 3c
       0.037153397 0.02325875 -0.032975003 0.0133402785
000050 e2 8c 4e 3c 3b ba df bc bb 12 8f bc b7 5e d2 3c
       0.012606831 -0.027310481 -0.017464986 0.02567993
000060 a7 25 e8 bc bf c1 2b 3d 24 57 d9 b9 1c 99 4e 3d
       -0.028338267 0.041932818 -0.0004145439 0.050438985
000070 b6 0c 0c bd 71 be 5c 3d 3d 7f 18 3d ac 34 1f bd
       -0.03419181 0.053892557 0.03723072 -0.03886859
000080 b1 64 d1 bc 15 92 56 3d 6d 68 3e bd 0b a8 e5 3c
       -0.025560709 0.05238541 -0.046486307 0.02803423
000090 fc 60 49 bc 7a a1 46 3d 51 2d 87 3d eb 3c 48 bc
       -0.012291189 0.04849384 0.0660044 -0.012221555
0000a0 09 76 41 3d 56 7e 2f 3b 6d 5e 43 bd d4 af e0 bc
       0.047231708 0.0026778183 -0.047697473 -0.027427591
0000b0 09 2c 69 3d a4 6b 26 bd b3 81 24 bd 30 e7 79 3d
       0.05692676 -0.040629998 -0.040162753 0.061011493
0000c0 3b 23 06 3d fe f7 2c 3d 8a 2b 13 3d a9 83 4b bd
       0.032748442 0.04222869 0.035930194 -0.049686108
0000d0 75 6b 38 bd b4 4b b9 3c bd 5e 19 bd a6 54 ba bc
       -0.045024354 0.022619106 -0.037443865 -0.022745442
0000e0 80 95 8a 3c 01 c5 a9 3c e8 00 63 39 58 a3 fd bb
       0.01691699 0.020723822 0.00021648745 -0.0077404194
0000f0 36 8d 64 bd b9 0c 1d 3d 5c 03 c6 bc 51 c5 03 3d
       -0.05579873 0.03834221 -0.024171524 0.032170597
000100 5d be ae bc 2a 02 2e bd 6b 91 b6 bc 52 7c 17 bd
       -0.021331007 -0.042482533 -0.022286138 -0.036983795
000110 18 53 ad 3c c7 c6 3c bd fe 7a eb bc fc e9 2f bc
       0.021157786 -0.046088006 -0.02874517 -0.010736939
000120 ab 11 b9 bc dc 8f a0 3b dc 7c 1e 3d df 55 41 3d
       -0.022591433 0.004899962 0.038693294 0.047201034
000130 b8 77 34 3d f8 e6 f1 bc 8e f3 1a bc 2d 8e 24 3d
       0.044059485 -0.02952908 -0.009457482 0.040174652
000140 b1 1c 6e 3d 5e 3f 1e bd 35 91 ab 3c 95 bd 6d bb
       0.05813283 -0.03863465 0.020943264 -0.003627633
000150 8b 39 4f 3d e0 58 61 3d c0 90 58 bd 1e 34 70 bc
       0.050591987 0.0550164 -0.05287242 -0.014660863
000160 33 0e 0d bc a1 1a fe 3c ec 28 35 3d 0f 12 6a 3d
       -0.008609342 0.031018557 0.04422848 0.05714613
000170 f5 d6 72 bd 42 d0 f7 bc 33 85 82 3c c4 f5 11 bd
       -0.05928703 -0.030250672 0.015932655 -0.03563477
000180 16 67 8b bd c4 9c c0 3c bc 7d 2b bd 55 f0 b7 bc
       -0.068067715 0.023512252 -0.041867957 -0.022453466
000190 fe 3e a2 3c bf 48 31 bd ec 2e 19 3d 0b fd 36 bd
       0.019805428 -0.043282267 0.037398264 -0.044674914
0001a0 ee 4f 51 bc 91 0b 4e 3d 5e 1e c6 3c b4 7d be bc
       -0.012775404 0.050304 0.024184402 -0.0232533
0001b0 3e 55 87 bc 88 e3 62 bd c8 b3 f6 3c 1b 06 40 3c
       -0.016520139 -0.055392772 0.030115023 0.011720206
0001c0 73 e9 38 3d 3d 64 56 3c eb 16 96 3c 9d e2 4f 3d
       0.04514451 0.013085422 0.018321475 0.050753225
0001d0 b0 f8 1f bc 04 94 9e bc d4 86 46 3c 1b b5 02 bd
       -0.009763882 -0.019357689 0.0121171065 -0.031910997
0001e0 06 46 28 bd 98 88 0b bb 4f 00 af 3c 74 b0 04 3c
       -0.041082405 -0.0021291133 0.021362452 0.00809871
0001f0 df d9 f2 bb 1f 64 aa 3b ce 8c 47 bd 8d d5 99 3b
       -0.007411226 0.0051999236 -0.048718266 0.0046946467
000200 b5 e0 65 bd 7a fb 33 3d 8e 92 f3 bc 33 03 5b bd
       -0.0561225 0.043941 -0.029732969 -0.053469848
000210 d7 55 ab bc 7a 3d 92 3c fe bc 53 bc 31 34 31 3c
       -0.020914955 0.01785158 -0.012923477 0.010815666
000220 9e fb b4 3c 7b ac 68 3c 6f 7a 1c 3c 43 20 51 3d
       0.022092637 0.014201279 0.009550675 0.051056158
000230 de 2c 96 3c e6 a1 19 bd 2c 85 65 bd 41 dc c8 3c
       0.018331941 -0.037507914 -0.056035206 0.024519088
000240 df fa f0 3c 58 7c 61 3d 09 ea e4 ba 9d 4e 0a 3d
       0.0294165 0.055050224 -0.0017464767 0.033766378
000250 bf 70 5e bd ab 3c 1c bc cb 67 d9 bb 36 ac 03 bd
       -0.05430674 -0.009535949 -0.0066346875 -0.032146655
000260 4c e6 51 bd fa f8 f9 bc 4e c5 47 3c f0 89 a3 bd
       -0.05124502 -0.03051423 0.012193037 -0.07985294
000270 fa 39 60 3c 92 67 5a bc 1e 6f 11 bd bb 0a 52 bd
       0.013685698 -0.013330357 -0.03550636 -0.051279765
000280 53 26 d0 bc 1b c2 34 bd ea 44 b4 3c 0d 86 2f 3d
       -0.0254089 -0.044130426 0.022005517 0.04285245
000290 97 f1 65 3d 55 fc 0b bc 8c 98 87 bd e9 c5 87 bd
       0.0561386 -0.008544047 -0.06620893 -0.06629545
0002a0 71 21 02 3d 7a fa 20 bd cd 19 3a 3d 38 0e e7 bc
       0.031770173 -0.039301373 0.04543476 -0.028205022
0002b0 2d 4e 79 bc 67 36 4f bc cf 2a 98 3c 75 54 2c 3c
       -0.015216392 -0.012647248 0.0185751 0.010518183
0002c0 ce 47 5e bd f2 a6 a3 bc b3 e5 4e 3d 8a cc 5f bd
       -0.054267697 -0.019977067 0.050512027 -0.054638423
0002d0 af c3 c5 3a 13 db 44 bd a3 e2 ae bc 21 fd 0a 3d
       0.0015088225 -0.048060488 -0.021348303 0.03393281
0002e0 88 b2 85 bd 2b 31 ef 3c ae f6 fa bc 85 17 65 bd
       -0.06528193 0.02919825 -0.030635204 -0.055930633
0002f0 98 7e 1f 3d bf 46 1d bd d9 45 c6 bc 81 d7 23 3d
       0.03893909 -0.038397547 -0.024203228 0.040000442
000300 36 37 85 39 63 35 62 3d 08 e8 d4 bc 19 f5 84 bc
       0.00025408872 0.055226695 -0.025989547 -0.016230153
000310 75 5a 1e bc ce ff 28 bc da f0 81 bd 5f d1 4f bb
       -0.009665121 -0.010314895 -0.06344767 -0.0031710488
000320 0f 2e a4 3c b7 3a 1d 3d 99 9a ff 3c 4b 39 8e 3b
       0.020041494 0.038386073 0.031201648 0.004340326
000330 d3 ee 89 bc d1 2b 80 3c 76 eb 23 3c af c7 e1 3c
       -0.016837513 0.015645893 0.010004869 0.027561037
000340 1a 07 91 3c d9 e0 29 bd 6c ba 34 bd 66 81 35 3d
       0.017703582 -0.041474197 -0.0441231 0.044312857
000350 63 07 d1 3c c5 b0 88 bd 46 25 0a 3d 52 f2 28 3c
       0.025516218 -0.06674341 0.033726953 0.01031168
000360 04 2a 13 bd 13 f8 85 bd 38 b8 06 3d dc 8d 5d 3d
       -0.03592874 -0.06541457 0.03289053 0.054090366
000370 c3 55 f7 3c 55 0d 29 bd ed ea 23 bc 16 7f 82 bd
       0.030192262 -0.04127248 -0.010004741 -0.06371896
000380 50 3b 1a 3d 6f 92 b9 3c e0 30 76 bc 80 0c b6 bc
       0.03765422 0.022652833 -0.015026301 -0.022222757
000390 60 58 18 bd 94 9e 26 bd 16 68 3b bd c0 d7 5e bc
       -0.037193656 -0.040678576 -0.04575356 -0.0136012435
0003a0 75 9e 0b 3d 5b cb 5b bb 1e a8 88 3c 97 0b 32 3d
       0.034086663 -0.0033537957 0.016681727 0.043468084
0003b0 80 89 4a bd 33 7c fe 3c 59 4e 67 bd fb 72 05 bd
       -0.049447536 0.031065082 -0.056471203 -0.032580357
0003c0 bf c6 a1 bc 7c 9f 0e 3c ab f8 4f bd 5a c9 2b bd
       -0.01974809 0.008705016 -0.050774258 -0.04194007
0003d0 00 0c 87 3c 39 1c 45 bd 21 a6 83 3d 0c 13 38 bd
       0.016485214 -0.04812262 0.06428171 -0.04494004
0003e0 46 bf 8d 3c 1c 91 9d bc c0 3f 01 bd cf 46 ec bb
       0.01730312 -0.019234233 -0.031554937 -0.0072105895
0003f0 1e c5 84 bd ac 0f 6c 3c a8 55 ce 3c ef 8b fb bb
       -0.064829096 0.014408033 0.025187328 -0.0076765935
